backend/models/best_model.pth (torch, 878946 bytes, 14 tensors)

cnn.0.weight f4 [32, 1, 3, 3]
0	0x3e8c1f72	0.2736774
1	0x3df9aa29	0.121906586
2	0xbe1e6b03	-0.15470509
3	0x3e9fc6b8	0.31206298
4	0xbe791bb2	-0.24326971
5	0x3e3b4435	0.18287738
6	0x3e9e866a	0.30961925
7	0x3cdefab2	0.02721915
8	0x3dd3579f	0.10319447
9	0xbe994605	-0.29936233
10	0xbea25a17	-0.31709358
11	0x3e69363b	0.22774594
12	0x3e88bcdf	0.26706597
13	0xbe94d6d1	-0.29070142
14	0x3e612c01	0.21989442
15	0x3d791b6e	0.060817175
16	0x3cb04d18	0.021521136
17	0xbe86e90d	-0.2634968
18	0x3e9bfb0d	0.30464974
19	0x3db014d5	0.085977234
20	0x3dfa6ae1	0.12227417
21	0xbdb30ec5	-0.087430514
22	0x3ea9f79f	0.33196732
23	0xbe73fb11	-0.23826243
24	0x3e22e6ae	0.1590831
25	0x3e19d3a5	0.15022142
26	0x3e6b5dd2	0.22985008
27	0x3e2f17cd	0.17098923
28	0x3e925621	0.28581336
29	0x3e0b2d7d	0.13591571
30	0xbd3b12fd	-0.045672406
31	0xbe31c801	-0.17361452
32	0x3e2f2667	0.17104493
33	0xbdd09675	-0.101849474
34	0x3e2029d9	0.15640964
35	0x3e957eb0	0.29198217
36	0x3c5d781d	0.013517407
37	0x3d294843	0.04132868
38	0x3e198645	0.14992626
39	0xbe5a3baa	-0.21311823
40	0x3d4f0dff	0.050550457
41	0xbe8019cc	-0.2501968
42	0xbd7879b6	-0.060662948
43	0x3d6d0aff	0.057871815
44	0xbea697f7	-0.32537815
45	0xbea5a1bd	-0.3234996
46	0xbdfd0790	-0.12354958
47	0xbe28e533	-0.16493683
48	0xbdf8026b	-0.12109836
49	0xbd926c57	-0.071495704
50	0xbdfb3c61	-0.12267376
51	0xbe077064	-0.13226467
52	0x3e061ae6	0.13096198
53	0x3b894833	0.004189515
54	0x3e0e9d10	0.13927102
55	0xbddd4fcd	-0.108062364
56	0xbe4d8e38	-0.20073783
57	0x3e99e6b2	0.3005882
58	0xbd0138c8	-0.03154829
59	0x3cd2aae5	0.025716254
60	0x3d8654a6	0.06559114
61	0x3ddf6897	0.10908621
62	0x3e80b111	0.2513509
63	0x3e295876	0.16537651
64	0x3d9e09c3	0.07716706
65	0x3d9dfb39	0.077139325
66	0x3d7d5260	0.061846137
67	0x3de6d942	0.112719074
68	0xbd30885d	-0.043098796
69	0x3e487219	0.19574775
70	0xbe93003e	-0.28711122
71	0x3e905942	0.28193098
72	0xbd957a0d	-0.0729867
73	0xbe34d71d	-0.17660184
74	0xbddfa47f	-0.10920047
75	0x3ea3db91	0.32003453
76	0xbe0dcc9a	-0.1384758
77	0x3e3f718c	0.18695658
78	0x3bb131ba	0.005407539
79	0xbe476abe	-0.19474313
80	0x3e9a0dc7	0.30088636
81	0xbe94d24e	-0.290667
82	0x3ce0632a	0.027391035
83	0x3e926192	0.28590065
84	0xbe0a7faf	-0.1352527
85	0xbe46e63a	-0.19423762
86	0xbdeac96d	-0.114642
87	0xbe59d8c0	-0.2127409
88	0xbe2b717f	-0.16742514
89	0xbe8d8fdf	-0.27648827
90	0x3e001434	0.12507707
91	0x3cf215ae	0.029551353
92	0x3dc1ffbc	0.094726056
93	0x3e778b8e	0.2417433
94	0x3da09e4b	0.07842692
95	0x3e4d036e	0.2002084
96	0x3e7e582e	0.24838325
97	0xbea6b9ec	-0.32563722
98	0x3cd8e522	0.026476447
99	0xbd3bb448	-0.045826226
100	0x3ea0fc45	0.31442466
101	0x3d2495b2	0.040181823
102	0x3ea4ef50	0.3221383
103	0x3d900475	0.070321
104	0x3dbe3a06	0.09288411
105	0xbdc82db2	-0.09774341
106	0x3dd02c78	0.10164732
107	0xbe3e43bc	-0.18580526
108	0x3e7a0172	0.24414614
109	0xbe8c8920	-0.27448368
110	0x3e463083	0.19354443
111	0xbe8334fb	-0.25626358
112	0x3e5f296f	0.2179315
113	0x3e474c6a	0.19462743
114	0x3e4e5065	0.20147856
115	0x3ea6cd26	0.3257839
116	0x3df7ac73	0.12093439
117	0x3df58881	0.11988927
118	0xbaffb252	-0.00195081
119	0x3e78bf38	0.24291694
120	0x3e5b3331	0.21406247
121	0x3e963efb	0.29344925
122	0xbe386f6a	-0.18011251
123	0xbe962e54	-0.2933222
124	0x3e384bb4	0.17997628
125	0x3dc6b94a	0.0970331
126	0xbe7b601b	-0.2454838
127	0xbe09bad6	-0.13450179
128	0x3ea6d3bc	0.32583416
129	0xbe0bc559	-0.13649501
130	0x3e6ade84	0.22936445
131	0x3d323bd4	0.043514088
132	0x3c5235e9	0.012830236
133	0xbd2711f5	-0.04078861
134	0x3e362399	0.17787017
135	0xbdef8afc	-0.11696431
136	0xbdd39d1c	-0.103327006
137	0x3e1d7116	0.1537517
138	0xbe98c307	-0.29836294
139	0x3e131002	0.14361575
140	0x3e99642c	0.29959238
141	0x3dbd6ec6	0.09249644
142	0x3e8f80b5	0.28027883
143	0x3e1045eb	0.14089172
144	0x3e3d037d	0.18458362
145	0x3e86e643	0.2634755
146	0x3e2b3867	0.16720735
147	0x3cc7cd08	0.024389759
148	0xbe6902df	-0.22755001
149	0xbe5b0ccf	-0.21391605
150	0x3ce013ce	0.027353194
151	0xbe8a2adb	-0.2698582
152	0x3df38c47	0.1189199
153	0x3da33789	0.07969577
154	0xbdf9ed25	-0.12203435
155	0x3e9db90d	0.30805245
156	0xbe2e1148	-0.1699878
157	0xbd94c860	-0.07264781
158	0x3e3d89f6	0.18509659
159	0x3d23a892	0.039955683
160	0x3d83038e	0.063971624
161	0xbe1ceb69	-0.15324177
162	0x3ea9ef7a	0.3319052
163	0x3d2d53e1	0.04231632
164	0xbeaa6940	-0.33283424
165	0xbbe481f3	-0.006973499
166	0x3e72b909	0.23703398
167	0xbea18611	-0.31547597
168	0xbe75a74b	-0.23989598
169	0xbe729884	-0.23690993
170	0x3e35e1e6	0.17761955
171	0x3c37f87d	0.011228678
172	0xbe917fad	-0.2841772
173	0x3e80b692	0.2513929
174	0x3e757f65	0.23974378
175	0xbe898ebb	-0.26866707
176	0x3dd76e52	0.10519089
177	0x3ea4dff1	0.32202104
178	0x3da2fd2b	0.07958444
179	0x3dfb6b58	0.122763336
180	0x3e878430	0.2646804
181	0x3e48cb17	0.19608723
182	0xbe83ea31	-0.2576461
183	0xbd84d6fa	-0.06486316
184	0x3d2743f4	0.04083629
185	0x3e5b94a2	0.21443418
186	0x3dc6fe04	0.097164184
187	0xbe25fbfe	-0.16209409
188	0x3d78e53b	0.060765486
189	0x3e0dacc4	0.13835436
190	0x3e20e2af	0.15711473
191	0xbdae99c4	-0.08525422
192	0xbe8ee428	-0.27908444
193	0xbc5c6af5	-0.013453235
194	0xbd5c9658	-0.053854316
195	0x3e6bba16	0.23020205
196	0xbe4655c5	-0.19368656
197	0x3e8acb0f	0.27108046
198	0x3dbaf069	0.09127886
199	0x3e802236	0.250261
200	0xbe2edb4b	-0.17075841
201	0x3ea7c41a	0.327668
202	0x3e9fba70	0.31196928
203	0xbe71e511	-0.23622538
204	0x3db5176e	0.088423595
205	0xbe465948	-0.19369996
206	0xbe682c39	-0.2267312
207	0xbe8a4210	-0.27003527
208	0xbdd925f4	-0.10602942
209	0xbe6e1014	-0.23248321
210	0xbe48d50b	-0.1961252
211	0x3ea83e0e	0.32859844
212	0xbdbd1c50	-0.09233916
213	0x3e8cd5d6	0.27506894
214	0x3d466662	0.048437484
215	0x3e460866	0.19339141
216	0xbea4943e	-0.3214435
217	0xbe8db299	-0.27675322
218	0xbe10f163	-0.14154582
219	0xbe04d54e	-0.12971994
220	0x3e7882a0	0.2426858
221	0x3e45b1d0	0.19306111
222	0x3e830b45	0.25594535
223	0x3ea2cb6d	0.31795827
224	0xbc8b345d	-0.016992742
225	0xbddeb818	-0.10874957
226	0x3e86af56	0.26305646
227	0xbb6b7244	-0.0035926262
228	0xbe2ef05b	-0.17083876
229	0x3d8a5608	0.067546904
230	0xbe33e8ee	-0.17569324
231	0x3e827a84	0.25484097
232	0x3e72e70a	0.23720947
233	0x3e004c0b	0.12529008
234	0xbdcde58f	-0.100535505
235	0xbc99017e	-0.01867747
236	0xbe8984d8	-0.26859164
237	0x3c7999fd	0.015234468
238	0xbdd2cbaa	-0.10292752
239	0xbea8fec3	-0.33006868
240	0xbdce7fb6	-0.10082953
241	0x3e51815c	0.20459503
242	0xbe32dce5	-0.17467077
243	0x3dea5b79	0.11443228
244	0xbe96db11	-0.2946401
245	0x3dc801e7	0.09765988
246	0x3eab06be	0.3340358
247	0xbe9ba124	-0.30396378
248	0xbe7bf49c	-0.2460503
249	0xbdfbebfe	-0.12300871
250	0x3ea5057a	0.3223074
251	0xbe214a85	-0.15751083
252	0x3e057026	0.13031062
253	0xbe4c9a34	-0.19980699
254	0xbe719aef	-0.23594259
255	0xbe657d6e	-0.22411129

cnn.0.bias f4 [32]
0	0x3cbab68b	0.022792121
1	0x3e5cb8da	0.2155489
2	0x3e3a037e	0.18165395
3	0x3e30fc0b	0.17283647
4	0x3e4c8f0f	0.19976448
5	0x3e73a2d9	0.2379259
6	0x3e7236c8	0.2365371
7	0xbd740a32	-0.059580036
8	0xbe992e6f	-0.2991824
9	0x3da94c12	0.082664624
10	0xbcb806ec	-0.022464238
11	0x3dbcfc86	0.092278525
12	0xbde50001	-0.11181641
13	0xbe1a5358	-0.15070856
14	0xbea5ed30	-0.32407522
15	0x3e4cbce7	0.19993936
16	0x3e540d19	0.20708121
17	0x3ea7a6d0	0.32744455
18	0x3e4b45f9	0.19850911
19	0x3e9174e4	0.28409493
20	0xbdfca04f	-0.12335264
21	0xbde10a24	-0.10988262
22	0x3e04cc3e	0.12968537
23	0xbe8db4b0	-0.27676916
24	0xbd6e553b	-0.05818675
25	0xbe231a2e	-0.15927956
26	0x3d2b25cd	0.041784097
27	0xbe099b83	-0.1343823
28	0xbd3e9b36	-0.04653474
29	0xbe2669b2	-0.16251257
30	0xbc0ed49a	-0.00871768
31	0xbe13f077	-0.14447199

cnn.3.weight f4 [64, 32, 3, 3]
0	0x3d1b5041	0.037918333
1	0xbd0267fe	-0.031837456
2	0x3cbfc2d7	0.023408337
3	0xbc809f3c	-0.015700929
4	0x3d4b6551	0.04965717
5	0xbd555382	-0.052081592
6	0xbd15480d	-0.036445666
7	0x3ca8e2f0	0.020616025
8	0x3d3c5e07	0.04598811
9	0xbd3ca8af	-0.046059307
10	0x3ca48b44	0.020085938
11	0x3d027923	0.031853806
12	0xbb5f5dd3	-0.0034083023
13	0xbd2fc6e6	-0.042914294
14	0xbccd5825	-0.025066445
15	0xbcfdacf4	-0.03096626
16	0x3c1005cb	0.008790444
17	0x3d63dc7b	0.05563019
18	0x3cc2abd4	0.023763575
19	0x3d307d33	0.04308815
20	0xbb677399	-0.0035316704
21	0x3c97807b	0.018493881
22	0x3d01077f	0.03150129
23	0x3d1a3a0d	0.037653018
24	0xbc9aca90	-0.018895417
25	0xbd1756b7	-0.036947932
26	0x3cc043bb	0.023469796
27	0x3d305e88	0.043058902
28	0x3d1879b8	0.037225455
29	0xbd25523a	-0.04036162
30	0x3d572504	0.052525535
31	0x3d05c970	0.03266281
32	0xbcdea67a	-0.027178992
33	0x3c9bad3b	0.019003501
34	0xbc32293d	-0.01087409
35	0xbd38928d	-0.045061637
36	0xbd006520	-0.03134644
37	0x3d6c37b4	0.05767031
38	0xbc84f916	-0.016232055
39	0x3c29a549	0.010354348
40	0xbbb22092	-0.0054360116
41	0x3d06bc94	0.032894686
42	0x3d0db451	0.03459579
43	0xbaf3a01d	-0.0018587146
44	0x3d61ba56	0.055109344
45	0x3cface02	0.03061581
46	0xbd07786f	-0.03307384
47	0xbc4dd10e	-0.01256205
48	0x3c9a74f2	0.018854592
49	0x3cfd6131	0.030930134
50	0x3c1f4abe	0.00972241
51	0xbc62ecdb	-0.013850416
52	0x3c38def4	0.011283625
53	0x3d28f958	0.041253418
54	0xbc88c040	-0.016693234
55	0xb9fed266	-0.00048603414
56	0xbcb00bd5	-0.021490017
57	0x3d4fe10d	0.050751735
58	0x3cf421b4	0.029801227
59	0x3d693ebf	0.056944605
60	0x3c0061cb	0.007835816
61	0x3c0cb3fa	0.008587832
62	0xbcdd0b34	-0.026982881
63	0x3d139469	0.036030207
64	0xbd3156ff	-0.043295857
65	0x3c5ef79f	0.013608842
66	0x3c8d779a	0.017268945
67	0x3d0142c5	0.031557817
68	0xbca6b52f	-0.020350067
69	0x3ce2b593	0.027674472
70	0xba8c6d91	-0.0010713806
71	0x3d4272e3	0.047472846
72	0x3d2b086f	0.04175609
73	0x3b8a6bb5	0.0042242655
74	0x3c8740c3	0.016510373
75	0xbcf00485	-0.02929903
76	0x3d3c26ac	0.045935318
77	0xbd415b32	-0.04720611
78	0x3d759e98	0.0599657
79	0x3d323690	0.043509066
80	0x3d2d7dc8	0.042356282
81	0x3d3a15ec	0.045431063
82	0x3c07e224	0.008293662
83	0xbc66be79	-0.014083498
84	0xbd6b501e	-0.057449453
85	0xbbc273fd	-0.005934237
86	0xbd56d994	-0.052453592
87	0x3cd421ac	0.025894962
88	0xbd2e708c	-0.0425878
89	0x3d6cb5df	0.057790633
90	0xbd715230	-0.05891627
91	0xbd258fa8	-0.040420204
92	0xbc451a48	-0.012030192
93	0x3cdfb35f	0.02730721
94	0x3d398d7e	0.045300953
95	0xbd056261	-0.032564525
96	0x3d455489	0.048176322
97	0x3d6f39b0	0.058404624
98	0x3d126e38	0.035749644
99	0xbc4da5de	-0.012551753
100	0x3c7f9f14	0.015601892
101	0xbccf1b94	-0.025281705
102	0x3d6860f5	0.05673309
103	0xbd42e49a	-0.047581293
104	0xbcae3a51	-0.021268042
105	0xbd36ad89	-0.04459909
106	0xbd5b0bd0	-0.053478062
107	0xbc76d410	-0.015065208
108	0xbc8b2022	-0.016983096
109	0x3d1cc585	0.038274307
110	0xbc89037e	-0.016725298
111	0x3c4d8117	0.012542984
112	0x3c40d9b2	0.011770653
113	0xbc5e5ccc	-0.013571929
114	0xbc0e2127	-0.008674896
115	0x3c158e9c	0.009128239
116	0x3d4d0ec7	0.05006292
117	0xbcd2f1bd	-0.025750035
118	0xbcacaace	-0.02107754
119	0x3cc90d04	0.02454234
120	0xbc867cb6	-0.016416889
121	0xbcdbaa1a	-0.02681451
122	0xbcb68ce8	-0.022283986
123	0xbd327173	-0.043565225
124	0x3c9fc9cd	0.019505406
125	0x3d4b8da7	0.049695637
126	0xbc8ae007	-0.016952528
127	0x3d6e926d	0.05824511
128	0xbc8fe9ae	-0.017567482
129	0xbc37b2fe	-0.011212109
130	0x3cf6e692	0.030139241
131	0xbd37023c	-0.044679865
132	0x3cc5343d	0.02407276
133	0x3c5d4201	0.013504506
134	0x3d2e2301	0.04251385
135	0xbd17c3a2	-0.037051804
136	0xbd6ab78d	-0.057303954
137	0xbd02aada	-0.031901218
138	0xbc9684d2	-0.01837388
139	0x3d70cd42	0.0587895
140	0xbcadccfb	-0.021215906
141	0x3a6125b0	0.0008588685
142	0xbc84a402	-0.016191486
143	0x3ccab924	0.024746485
144	0x3d5a6028	0.053314358
145	0xbc9908c0	-0.01868093
146	0xbd2aef85	-0.04173233
147	0x3c9d3df3	0.019194579
148	0x3c848af0	0.016179532
149	0xbcce4f07	-0.025184168
150	0xbc76fd16	-0.015074989
151	0x3d6ca2a3	0.05777229
152	0xbd021941	-0.031762365
153	0x3b7196bc	0.0036863526
154	0x3d519c01	0.051174168
155	0xbc1f6fef	-0.009731277
156	0x3d25c786	0.040473484
157	0xbc74b8a3	-0.014936599
158	0xbd287ec2	-0.04113651
159	0x3d1c4e7f	0.038160797
160	0x3d6aa14a	0.057282723
161	0x3caea85b	0.021320513
162	0x3cb20234	0.021729566
163	0xbc02d3bb	-0.007985051
164	0x3d4bb4e5	0.04973306
165	0x3c434d12	0.01192023
166	0xbb44b652	-0.0030015898
167	0xbc7e0ba6	-0.015505707
168	0xbd3da2a6	-0.04629769
169	0xbcae4953	-0.021275198
170	0x3ab9a174	0.0014162497
171	0xbbe9527e	-0.0071204295
172	0xba065770	-0.00051247235
173	0xbd142f32	-0.03617782
174	0x3c01cdaa	0.007922569
175	0x3c033180	0.008007407
176	0x3d1f4d4e	0.038892083
177	0xbc78470f	-0.01515366
178	0x3bc0e7f8	0.005887028
179	0x3c566247	0.013084955
180	0x3d541f7e	0.051787846
181	0x3cca0f42	0.024665479
182	0xbd319136	-0.043351375
183	0xbca7b2a1	-0.02047092
184	0x39551df8	0.00020324427
185	0xbd0a4634	-0.033758357
186	0xbd3a5b92	-0.045497485
187	0xbc841b9f	-0.016126452
188	0x3b246513	0.002508466
189	0xbb984d50	-0.0046478882
190	0xbccd0021	-0.025024476
191	0xbcc6e1a1	-0.02427751
192	0xbd36ccdd	-0.044628967
193	0xbc93d0ab	-0.018043837
194	0x3c816c9e	0.015798863
195	0x3ccf5f9e	0.025314149
196	0x3d78b4ce	0.060719304
197	0x3d7ab941	0.06121183
198	0x3d0d32d1	0.03447229
199	0x3d293b8f	0.041316565
200	0xbd3991d4	-0.04530509
201	0x3d0a84a0	0.033817887
202	0xbd5efdea	-0.05444137
203	0xbc103666	-0.008802032
204	0xbce0cd1b	-0.027441552
205	0x3ace68d0	0.0015747789
206	0x3adb2da0	0.0016721971
207	0x3cd5e704	0.026111133
208	0xbd49f5e1	-0.049306754
209	0xbd1e1eba	-0.038603522
210	0xbc483de7	-0.01222179
211	0x3d65d3f4	0.056110337
212	0x3d6a8915	0.057259638
213	0xbc484db3	-0.012225556
214	0xbb8a5754	-0.004221836
215	0x3d088a5c	0.033335075
216	0xbd0830c5	-0.033249635
217	0x3c4ff81f	0.012693434
218	0x3cf940ba	0.030426372
219	0xbc913a3b	-0.017727962
220	0xb9fbb5c4	-0.00048009877
221	0x3b9e2f26	0.004827398
222	0x3baf8730	0.005356692
223	0x3a991c13	0.001168134
224	0xbcbd6161	-0.023117723
225	0xbcd95e6b	-0.02653428
226	0x3d0607dd	0.032722343
227	0x3d5e6ad1	0.054301087
228	0x3c9b511e	0.018959578
229	0xbb97ef26	-0.004636663
230	0x3ca47b0c	0.020078205
231	0x3d2f7164	0.042832747
232	0xbd3451c3	-0.044023287
233	0xbd22dfb7	-0.039764132
234	0x3d5b24c9	0.053501878
235	0xbd3aecc7	-0.045635965
236	0x3d028cc3	0.031872522
237	0x3cf52c01	0.02992821
238	0xbccb397b	-0.024807682
239	0xbd1be410	-0.038059294
240	0x3d19b38b	0.03752474
241	0xbc27ccd8	-0.01024171
242	0xbd06d946	-0.03292205
243	0xbcd05f4f	-0.025436072
244	0xbd28c3e1	-0.04120243
245	0x3c80cebd	0.01572358
246	0x3d0c20d8	0.03421101
247	0x3cca2467	0.024675561
248	0x3d48c816	0.04901894
249	0xbc12d1d9	-0.008961164
250	0x3d6e19e6	0.058130167
251	0xbd0c4dbf	-0.034253832
252	0xbc81cda1	-0.015845122
253	0xbcd671c1	-0.026177289
254	0xbd1d8837	-0.038459983
255	0x3d274bd1	0.04084379

cnn.3.bias f4 [64]
0	0x3d4a9bac	0.049464867
1	0x3d7682ef	0.06018346
2	0xbd491451	-0.04909164
3	0xba716980	-0.0009209141
4	0xbcf98d51	-0.030462893
5	0x3bd11de3	0.0063817366
6	0xbd037302	-0.032092102
7	0x3d5adfec	0.053436205
8	0xbcf5270e	-0.02992585
9	0x3c5a4138	0.013321213
10	0x3ca00889	0.01953532
11	0x3d5ee55d	0.054417957
12	0x3a593c59	0.00082868856
13	0x3d639428	0.055561215
14	0x3ba342ee	0.004982344
15	0x3c4b5e13	0.012412566
16	0x3d6b1b43	0.057399046
17	0x3d26902c	0.040664837
18	0xbb0380c2	-0.002006576
19	0x3c80fdac	0.01574596
20	0x3d4f6e9f	0.050642606
21	0x3c712fb5	0.014720847
22	0x3a27d947	0.0006402921
23	0x3d3ecabd	0.046580065
24	0xbd64cd5d	-0.055859912
25	0x3d23d40e	0.039997153
26	0x3d34c116	0.044129454
27	0x3d1ed04f	0.038772877
28	0xbc708937	-0.014681152
29	0xba1e3b4a	-0.00060360564
30	0x3d6aed80	0.057355404
31	0x3cb072a1	0.021539034
32	0x3c6e67a1	0.014551074
33	0x396b4848	0.00022438273
34	0xbd2756bf	-0.040854212
35	0xbd6f1a7f	-0.058374878
36	0xbd2e40d9	-0.042542312
37	0x3caaf6b3	0.020869588
38	0x3d562d80	0.052289486
39	0xb8357230	-4.326011e-05
40	0x3d74123b	0.0595877
41	0xbd401a7b	-0.046900254
42	0xbd2f6a9c	-0.04282628
43	0x3cecd276	0.02890895
44	0x3d51124c	0.05104284
45	0xbd204359	-0.039126728
46	0x3d4b4b97	0.049632635
47	0x3cd3a633	0.025836086
48	0x3d73473b	0.059394103
49	0xbb0ce096	-0.0021496168
50	0xbccc93ad	-0.024972761
51	0x3c15daca	0.009146402
52	0xbd4c5d2a	-0.049893536
53	0x3d225590	0.03963238
54	0xbb1f073f	-0.0024265794
55	0xbc109dfa	-0.008826727
56	0xbd3384a6	-0.043827675
57	0x3d50693e	0.050881617
58	0x3d591f3b	0.0530083
59	0x3d23565e	0.039877288
60	0xbc9acc4d	-0.018896246
61	0xbcbaccb0	-0.02280268
62	0xbd37d59b	-0.044881444
63	0xbd55accf	-0.052166756

lstm.weight_ih_l0 f4 [512, 64]
0	0x3d99cdd5	0.075099625
1	0xbc9e69da	-0.019337583
2	0x3da9822f	0.08276784
3	0x3d725da4	0.059171334
4	0xbae8a4b5	-0.0017749282
5	0x3da91565	0.08256034
6	0xbc67d5c8	-0.0141500905
7	0xbdae1599	-0.08500213
8	0x3d03dcf9	0.032193158
9	0xbcbfc86c	-0.023410998
10	0x3d2827c3	0.041053545
11	0xb960ea46	-0.00021449578
12	0x3d0add52	0.033902474
13	0xbcf5262b	-0.029925426
14	0xbc80aae3	-0.015706485
15	0x3d5cff6a	0.05395452
16	0x3d977f25	0.07397298
17	0xbd77a562	-0.060460456
18	0xbbf1791a	-0.0073691728
19	0xbd0c852a	-0.034306683
20	0xbca140a9	-0.019684153
21	0xbc5adb84	-0.013358001
22	0xbd4c3546	-0.049855493
23	0xbd907416	-0.07053392
24	0x3d5f8592	0.054570742
25	0xbc19639d	-0.009362129
26	0xbd5fdb8c	-0.054652736
27	0x3d2ab6f7	0.041678395
28	0xbd64d3ee	-0.055866174
29	0xbd863c7f	-0.065545075
30	0x3d9f4c0f	0.07778179
31	0x3cc55a41	0.024090888
32	0x3d901671	0.0703553
33	0x3c9f9323	0.01947934
34	0xbc98a1bd	-0.01863181
35	0x3d4d9b96	0.050197206
36	0x3cd9184a	0.02650084
37	0xbd9db5c7	-0.07700687
38	0xbdaa160b	-0.083049856
39	0x3ca55edb	0.020186832
40	0xbd855b0d	-0.06511507
41	0xbda80f01	-0.08205987
42	0x3cfb26fb	0.030658236
43	0x3d891572	0.066935435
44	0x3da7db9c	0.08196184
45	0xbc8e3d87	-0.017363323
46	0x3d7c1a2a	0.06154839
47	0xbd7dc0f9	-0.06195161
48	0xba21153d	-0.00061448273
49	0x3ceb636e	0.028733935
50	0xbcfbcc45	-0.030737052
51	0xbcfc2c3d	-0.030782813
52	0xbb067b4c	-0.0020520268
53	0x3d3e5c08	0.046474487
54	0xbd8ef73d	-0.06980751
55	0xbcd6ab3e	-0.026204702
56	0xbdb64da2	-0.08901526
57	0x3d70954c	0.05873613
58	0x3caba2b7	0.020951612
59	0xbc2c513f	-0.010517417
60	0x3d5ee591	0.05441815
61	0x3d8453e2	0.06461312
62	0x3d84a3cf	0.064765565
63	0x3cbac79b	0.022800257
64	0xbc7072ff	-0.014675855
65	0x3d471b0c	0.04860978
66	0x3d884797	0.0665428
67	0xbcfab28f	-0.030602721
68	0xbd5c410d	-0.053772975
69	0xbd03f5c1	-0.03221679
70	0x3cbc48d0	0.022983938
71	0xbd70420c	-0.058656737
72	0x3d9f94a7	0.07792025
73	0xbd0f7969	-0.035027895
74	0xbd2b63fe	-0.041843407
75	0xbd0d0cfd	-0.034436215
76	0x3d66baca	0.05633048
77	0xbda5c1ba	-0.08093591
78	0x3d228edb	0.03968702
79	0x3d8ffc1b	0.07030507
80	0x3cd5eefc	0.026114933
81	0x3d818d9e	0.063258395
82	0x3cb447f7	0.022006972
83	0xbd1b9ed7	-0.03799328
84	0x3cc20d54	0.023687996
85	0xbc62b516	-0.01383712
86	0xbca98488	-0.020693079
87	0x3c7d11a7	0.015446103
88	0xbd7f6eae	-0.06236141
89	0x3d28d527	0.041218903
90	0x3db361cf	0.0875889
91	0xbd8627e8	-0.0655058
92	0xbc89886e	-0.016788688
93	0xbc7359ad	-0.014852923
94	0xbd1a102e	-0.037613086
95	0xbd52832e	-0.051394634
96	0x3d7d0165	0.061768908
97	0x3b87b630	0.0041415915
98	0xbcd11b7b	-0.025525799
99	0xbc444613	-0.011979598
100	0xbc3605b2	-0.011109756
101	0x3cc2b698	0.023768708
102	0xbd8de437	-0.06928294
103	0x3d649ea6	0.05581536
104	0xbbf87374	-0.0075821225
105	0xbd00a64f	-0.031408604
106	0x3d3a6ca8	0.04551378
107	0xbd388674	-0.0450501
108	0x3c81e429	0.015855866
109	0xbc4c867f	-0.012483238
110	0x3da8d33d	0.082434155
111	0xbcbcc818	-0.02304463
112	0xbd8d6c86	-0.06905465
113	0xbd7d6fca	-0.06187419
114	0xbd240386	-0.040042423
115	0xbc49989d	-0.012304452
116	0x3da1741a	0.07883473
117	0xbd3df110	-0.046372473
118	0xbc4b72a0	-0.012417465
119	0x3d83a184	0.06427291
120	0xbbeb4846	-0.0071802465
121	0x3d8a5b69	0.06755716
122	0xbd147f9d	-0.036254514
123	0x3d2f29c6	0.042764448
124	0xbb9a6a8e	-0.0047124093
125	0x3c97bb3e	0.018521901
126	0xbccd01fd	-0.025025362
127	0xbd8ca3e6	-0.06867199
128	0xbd62734e	-0.055285744
129	0x3c4c74fa	0.012479061
130	0x3c734319	0.01484754
131	0xbd83d3ce	-0.06436883
132	0x3d280c32	0.041027255
133	0xbd167171	-0.03672928
134	0x3cabbf6d	0.020965302
135	0x3d5d74d8	0.05406651
136	0x3cba19f8	0.022717461
137	0xbca66f52	-0.020316754
138	0xbd2471b5	-0.040147502
139	0x3d8c6bfd	0.06856535
140	0x3c85a58e	0.016314294
141	0x3c78215e	0.015144674
142	0x3b9cb384	0.004782142
143	0x3d34d922	0.044152386
144	0xbd78e864	-0.0607685
145	0xbd308f55	-0.043105442
146	0xbc9fccad	-0.019506777
147	0x3d37137f	0.044696327
148	0xbba3f670	-0.005003743
149	0x3d507428	0.050892025
150	0x3d204b7f	0.0391345
151	0xbd931f16	-0.071836635
152	0x3bc04000	0.0058670044
153	0xbcfc549f	-0.03080207
154	0xbbe59119	-0.0070058224
155	0x3d3f7199	0.046739195
156	0xbd7b32f8	-0.061327904
157	0x3d9f94c1	0.077920444
158	0xbc131a29	-0.008978405
159	0x3d4dac7d	0.050213326
160	0xbd251487	-0.04030278
161	0xbd270f4d	-0.040786076
162	0x3db28f41	0.0871873
163	0xbd8e639f	-0.06952595
164	0xbd476093	-0.048676085
165	0xbd521350	-0.05128795
166	0xbb592761	-0.0033135044
167	0xbd9d3814	-0.07676712
168	0xbaccb9ad	-0.00156193
169	0xbda5adc1	-0.080897816
170	0x3d631284	0.05543758
171	0xbd79ce05	-0.06098749
172	0xbd58db0d	-0.052943278
173	0x3c80e313	0.015733277
174	0x3d38a09d	0.045075048
175	0xbd1a54d1	-0.037678543
176	0x3d263864	0.040581122
177	0x3d1ee6b2	0.038794227
178	0xbd8e6cdd	-0.06954358
179	0xbd6413ee	-0.05568307
180	0xbdac639f	-0.08417439
181	0x3c3c44c6	0.011491006
182	0x3d6d468a	0.0579286
183	0xbd955e7c	-0.07293412
184	0x3cf722ad	0.030167902
185	0xbd7ae6c0	-0.061255217
186	0xbd466db2	-0.048444457
187	0x3d81b418	0.06333178
188	0x3c69f57a	0.014279718
189	0xbd76916f	-0.06019729
190	0x3c1f87be	0.009736953
191	0x3d2c89b1	0.0421235
192	0xbd30f40e	-0.0432015
193	0xbda3678d	-0.07978735
194	0xbc8c02ba	-0.017091144
195	0xbd1599bc	-0.036523566
196	0xbd8fcd38	-0.07021564
197	0x3be9a9a8	0.0071308203
198	0x3cf9e63e	0.030505296
199	0xbd9f73ff	-0.077857964
200	0xbd86fd34	-0.065912634
201	0xbdafd369	-0.08585245
202	0xbd1f07c5	-0.03882577
203	0x3d164f96	0.036696993
204	0x3d71d8fc	0.059044823
205	0xbcb9b83d	-0.02267086
206	0xbd5f668c	-0.054541156
207	0x3d31a1c3	0.04336716
208	0xbd4f2ae7	-0.050578024
209	0x3d0b1144	0.033952013
210	0x3dab1093	0.08352771
211	0xbd8aabc9	-0.06771047
212	0xbd34d63e	-0.04414963
213	0xbd93e795	-0.07221905
214	0x3d7a2673	0.061071824
215	0x3d6e29ed	0.058145452
216	0xbd308aa8	-0.043100983
217	0xbd71d59d	-0.059041608
218	0x3c30c0fe	0.0107882
219	0xbcb3b85d	-0.021938497
220	0xb93c3fd2	-0.00017952852
221	0x3aa3bdea	0.0012492512
222	0xbd222960	-0.03959024
223	0x3d9d1cf0	0.07671535
224	0xbc911415	-0.017709771
225	0x3d4e9615	0.050436098
226	0xbdad4359	-0.08460111
227	0xbb185b9a	-0.0023247958
228	0x3ca0efd7	0.019645615
229	0xbd697c8a	-0.057003535
230	0xbc0dad18	-0.008647226
231	0xbd08661c	-0.033300504
232	0x3ccf645b	0.025316408
233	0x3c275aee	0.01021455
234	0x3ae05afb	0.0017116958
235	0x3a39bfba	0.00070857594
236	0x3da85fea	0.08221419
237	0x3d68faa2	0.056879647
238	0x3daa9c37	0.08330577
239	0x3da58e2a	0.08083756
240	0x3da39eac	0.07989249
241	0x3d355b97	0.0442768
242	0xbd9ccc39	-0.0765614
243	0x3da2b7eb	0.07945236
244	0xbd98ae56	-0.07455127
245	0x3bb1bdd5	0.005424241
246	0x3c3c4eee	0.011493428
247	0xbcfe303f	-0.031028865
248	0x3d930bd0	0.071799874
249	0x3d90fcfe	0.070795044
250	0x3d28ca23	0.041208398
251	0x3daa1087	0.083039336
252	0xbd28c102	-0.04119969
253	0xbd884689	-0.066540785
254	0xbdb5d45e	-0.088783965
255	0x3c695a45	0.014242713

lstm.weight_hh_l0 f4 [512, 128]
0	0xbd3f8da1	-0.046765927
1	0x3cf3d34f	0.029763846
2	0xbd7d231c	-0.06180106
3	0xbd54a918	-0.051919073
4	0xbd0f7da6	-0.035031937
5	0xbd923052	-0.071381226
6	0xbdad1495	-0.08451191
7	0xbdaa7c0f	-0.083244435
8	0xbd8ade48	-0.06780678
9	0xbbd11d11	-0.006381639
10	0x3cf9d7a1	0.030498328
11	0x3ce1fdd8	0.027586862
12	0xbd60d206	-0.054887794
13	0x3d85750b	0.06516465
14	0xbd6e0390	-0.058108866
15	0xbd8e9701	-0.069623955
16	0x3d420b6b	0.04737417
17	0xbd2b0a3b	-0.041757803
18	0xbd32e28e	-0.04367309
19	0xbda52eea	-0.08065589
20	0xbda5de12	-0.08098997
21	0xbc83640b	-0.016038915
22	0x3a980e04	0.0011600857
23	0xbd27238d	-0.04080539
24	0xbd95d31a	-0.07315655
25	0xbc84c8c8	-0.016209021
26	0x3cf68a2d	0.030095184
27	0xbd664333	-0.05621643
28	0xbd7c0dd4	-0.061536625
29	0x3d3019dc	0.04299341
30	0xbd3d287f	-0.0461812
31	0x3d14f8c8	0.03637007
32	0xbd84514c	-0.06460819
33	0x3d936b0c	0.07198152
34	0xbd87c0b3	-0.06628551
35	0xbce72350	-0.02821508
36	0x3d46a9d8	0.04850182
37	0x3da9e26f	0.08295142
38	0xbcd23002	-0.025657658
39	0xbd962aef	-0.07332408
40	0xbd61c763	-0.05512179
41	0xbdb5d153	-0.08877816
42	0xbd794513	-0.06085689
43	0x3d84f35d	0.0649173
44	0xbd2c694d	-0.04209261
45	0x3db71e24	0.08941296
46	0xbdac2aca	-0.08406599
47	0xbd309180	-0.04310751
48	0xbdacb782	-0.08433439
49	0x3c91c644	0.017794736
50	0x3d91c4b6	0.07117598
51	0x3cadd5c9	0.021220105
52	0xbd3e3398	-0.046435922
53	0x3da09e73	0.07842722
54	0xbd90ee9b	-0.070767604
55	0x3cf2d3f7	0.029642088
56	0x3c0d17e5	0.008611654
57	0xbb358390	-0.0027696826
58	0xbd7e774e	-0.062125497
59	0xbd8cf1b7	-0.06882041
60	0x3d9adcce	0.075616464
61	0xbda96dc2	-0.08272888
62	0xbd0df809	-0.034660373
63	0xbc17eabd	-0.009272275
64	0x3d191430	0.037372768
65	0xbda5bb4c	-0.08092365
66	0xbd59c00d	-0.05316167
67	0xbc056916	-0.00814273
68	0xbd18eaae	-0.037333183
69	0xbc5acb10	-0.013354078
70	0xbd824d13	-0.06362357
71	0x3c445390	0.0119828135
72	0xbced52b1	-0.028970094
73	0x3c85557b	0.016276112
74	0xbdad251b	-0.08454343
75	0x3d18c638	0.03729841
76	0xbd869a6f	-0.065724246
77	0xbd32007d	-0.043457497
78	0x3d0606da	0.032721378
79	0x3d6982c1	0.057009462
80	0xb6c22600	-5.7860743e-06
81	0xbd553c76	-0.052059613
82	0x3d34bcc1	0.044125322
83	0xbba63673	-0.005072409
84	0x3dac1637	0.08402675
85	0xbd547f0c	-0.051878974
86	0xbcddb751	-0.027064951
87	0x3d97e4be	0.07416676
88	0x3da904f3	0.08252897
89	0x3d4a9fe6	0.049468897
90	0xbd756f71	-0.059920732
91	0xbd0df77c	-0.034659848
92	0xbd5ce836	-0.05393239
93	0xbd6d5578	-0.057942837
94	0xbd9f0f77	-0.077666216
95	0x3d64432d	0.055728126
96	0x3b160ca0	0.0022895709
97	0xbc7592b2	-0.014988588
98	0x3d9614c8	0.073281825
99	0xbd9ba9da	-0.07600756
100	0xbb892538	-0.004185345
101	0xbcb0a39e	-0.021562394
102	0x3da71d62	0.08159901
103	0xbd664c8c	-0.056225345
104	0xbbe67cf5	-0.007033939
105	0x3dae395b	0.085070334
106	0x3bc55acd	0.006022787
107	0xbd749d89	-0.05972055
108	0xbd97be94	-0.07409397
109	0x3c5465a0	0.012963682
110	0x3ab86985	0.0014069533
111	0x3d2bd5bd	0.041951884
112	0xbd2f4629	-0.04279152
113	0x3c3d842a	0.011567155
114	0xbb9a6a86	-0.0047124056
115	0xbcc39dc6	-0.023878943
116	0x3befb7d8	0.007315617
117	0x3cd0b830	0.025478452
118	0xbd9046a7	-0.07044726
119	0x3da2f726	0.07957296
120	0xbcc4587f	-0.02396798
121	0xbd4be880	-0.049782276
122	0xbd9f559f	-0.07780003
123	0x3ca9173a	0.020640958
124	0x3d220fdd	0.03956591
125	0xbd867dd7	-0.06566971
126	0xbcb34401	-0.021883013
127	0x3c7fe3da	0.015618289
128	0xbc94c586	-0.018160593
129	0xbca52bf8	-0.020162567
130	0x3d96ce47	0.07363563
131	0xbd337dc8	-0.043821126
132	0x3d64468f	0.055731352
133	0xbd8dee89	-0.069302626
134	0xbd94f2d4	-0.07272878
135	0x3cb89ee6	0.022536706
136	0x3c36a13a	0.011146838
137	0x3db75e5d	0.08953545
138	0x3d926905	0.07148937
139	0xbc14b9d2	-0.009077506
140	0xbd5a91b2	-0.053361602
141	0xbd7f98fc	-0.062401757
142	0xbca95c22	-0.020673815
143	0x3d96cdbb	0.07363459
144	0x3cb29950	0.02180162
145	0xb8d9fa1c	-0.00010393953
146	0xba4085f2	-0.0007344178
147	0x3bbb1895	0.0057097175
148	0x3d8ae16c	0.06781277
149	0x3d642dff	0.055707928
150	0x3d415c25	0.047207016
151	0xbd6c55b5	-0.057698924
152	0xbd9fccdc	-0.07802746
153	0x3d88b103	0.06674387
154	0x3da3d53a	0.07999654
155	0x3d44f735	0.048087317
156	0xbd142bea	-0.036174692
157	0xbd28529d	-0.04109441
158	0xbda66987	-0.081255965
159	0xbaf6ee48	-0.0018839324
160	0x3d61c7c6	0.05512216
161	0x3cb45092	0.022011075
162	0xbd0e8e8e	-0.03480392
163	0xbd88bdf6	-0.06676857
164	0x3db27023	0.08712795
165	0xbd26fa7d	-0.040766228
166	0xbd10d6cd	-0.0353611
167	0x3d185b1e	0.03719627
168	0x3ccf4a11	0.025303872
169	0x3dac8481	0.084237106
170	0x3d93e14c	0.07220706
171	0x3d8ff2a5	0.07028703
172	0x3c7d52df	0.015461653
173	0x3dae2f42	0.085051075
174	0x3d9522c0	0.07282019
175	0x3b1cb57e	0.0023911889
176	0x3cacedb0	0.021109432
177	0x3d77c382	0.060489185
178	0xbad1835c	-0.0015984583
179	0xbd454581	-0.048161987
180	0xbd0c6941	-0.034280065
181	0xbc91685d	-0.01774996
182	0x3da5e352	0.080999985
183	0x3d81911e	0.06326507
184	0xbcdfcd28	-0.027319506
185	0xbd0f661c	-0.03500949
186	0xbd841ae0	-0.064504385
187	0x3c904c39	0.01761447
188	0xbd3adcfe	-0.04562091
189	0x3ce35486	0.027750265
190	0xbb915a50	-0.004435815
191	0xbd0eb2f0	-0.034838617
192	0xbd2d1f56	-0.042266212
193	0xbcbcf345	-0.023065219
194	0xbd2b48e2	-0.041817553
195	0x3d87369d	0.066022135
196	0x3cb01188	0.021492735
197	0x3d1bbed6	0.038023792
198	0xbd18f725	-0.03734507
199	0x3d9da2c4	0.07697061
200	0xbcde40a2	-0.027130429
201	0xbd811037	-0.06301921
202	0x3be3ba81	0.006949723
203	0x3d07da92	0.03316743
204	0x3ce7c975	0.028294304
205	0x3da020a4	0.07818726
206	0x3d181353	0.037127804
207	0x3d8caae9	0.06868536
208	0xbda5cafa	-0.08095355
209	0xbc3d2c11	-0.011546151
210	0xbd5d78b7	-0.0540702
211	0x3ca4c0ea	0.02011152
212	0xbc4a4325	-0.01234511
213	0x3b8cea48	0.0043003894
214	0x3d916642	0.07099582
215	0xbd7eefe1	-0.062240485
216	0x39159cc4	0.00014268147
217	0x3ab4f154	0.0013804832
218	0xbdace4f5	-0.084421076
219	0x3db79825	0.08964566
220	0xbd682396	-0.056674562
221	0x3cd18641	0.025576713
222	0x3a87641c	0.0010329518
223	0x3c1aa2ec	0.009438258
224	0xbc1f4d2c	-0.009722989
225	0xbd02d12e	-0.03193777
226	0x3d82afcc	0.06381187
227	0xbd38eada	-0.045145847
228	0x3d84ab98	0.064780414
229	0xbcfa11dd	-0.030526096
230	0x3d919bc9	0.07109792
231	0x3aa18969	0.0012324277
232	0x3db1a389	0.0867377
233	0xbd037dfd	-0.032102574
234	0x3c9922a5	0.018693278
235	0x3da0df86	0.07855134
236	0xbdb5802d	-0.08862338
237	0xbcbf9822	-0.023387972
238	0x3d53a980	0.05167532
239	0x3da93052	0.082611695
240	0xbd61fc5d	-0.055172313
241	0xbd956baa	-0.07295926
242	0x3d2db8aa	0.042412437
243	0xbbaa62f5	-0.005199785
244	0xbc7480d6	-0.014923295
245	0xbd552419	-0.05203638
246	0x3d351d1a	0.044217207
247	0x3d41b29d	0.04728948
248	0x3d8b688f	0.06807052
249	0x3d2cc38c	0.042178676
250	0x3da533ff	0.08066558
251	0x3b100bbe	0.0021979655
252	0xbda7d352	-0.08194603
253	0xbcf10c11	-0.029424699
254	0xbba3e840	-0.0050020516
255	0xbae21d65	-0.0017251192

lstm.bias_ih_l0 f4 [512]
0	0x3d610bd2	0.054942913
1	0xbcd752b2	-0.02628455
2	0xbbe90bd9	-0.007112008
3	0x3d929d1a	0.07158871
4	0x3b52e1b6	0.0032177991
5	0x3c21b0f6	0.009868851
6	0x3d397e22	0.045286305
7	0xbc9c5b08	-0.019086376
8	0x3c003e5b	0.007827367
9	0x3c4df397	0.012570283
10	0xbda7dcf5	-0.08196441
11	0x3d0f0802	0.034919746
12	0x3d0baa29	0.034097824
13	0x3d3b75a6	0.045766495
14	0xbce35690	-0.027751237
15	0xbd8efa34	-0.06981316
16	0x3c90cb3a	0.017675031
17	0x3cd50dac	0.026007496
18	0x3d4fda34	0.050745204
19	0x3a5e5806	0.00084817444
20	0x3d94bbf1	0.072624095
21	0x3d87212b	0.06598123
22	0xb99fc764	-0.000304754
23	0xbc1e323a	-0.00965553
24	0x3d87bc89	0.06627757
25	0xbcd2060c	-0.025637649
26	0xbd8fce37	-0.07021754
27	0x3d00d682	0.03145457
28	0xbce41ee0	-0.027846754
29	0x3d86402f	0.06555211
30	0x3da3e19b	0.08002015
31	0x3adabaa4	0.0016687703
32	0x3d138831	0.036018554
33	0x3d503851	0.050834958
34	0x3d941391	0.072302945
35	0xbd16847b	-0.036747437
36	0xbc77e382	-0.015129926
37	0x3d6055de	0.05476939
38	0xbdb912f8	-0.09036821
39	0xbda1bba9	-0.078971215
40	0x3d2c886f	0.0421223
41	0xbd194cc8	-0.03742674
42	0x3c6a57c0	0.014303148
43	0x3c82b19e	0.015953835
44	0x3d922676	0.07136242
45	0x3b3c984d	0.0028777302
46	0x3d8e7ec7	0.069577746
47	0x3c16542c	0.009175342
48	0x3d584409	0.05279926
49	0x3c9cb169	0.019127565
50	0xbd8e4b63	-0.069479726
51	0xbdaee7b3	-0.08540287
52	0xbdafe6b9	-0.08588929
53	0x3d72dc16	0.05929192
54	0x3d4062b2	0.046969123
55	0x3d978254	0.07397905
56	0xbce25675	-0.027629117
57	0x3cd4113a	0.02588712
58	0xbda767c7	-0.08174091
59	0xbd91b274	-0.07114115
60	0x3da1cb6c	0.07900128
61	0xbd615661	-0.055014018
62	0x3c924b0b	0.017858049
63	0xbcf14f13	-0.02945665
64	0xbda350ec	-0.07974419
65	0xbc5004bd	-0.012696442
66	0xbc94b512	-0.018152747
67	0x3cb98c21	0.022649826
68	0x3d4edebe	0.050505392
69	0x3d945428	0.07242614
70	0xbd430afe	-0.047617905
71	0xbd385f21	-0.045012597
72	0x3cbe76c5	0.023249993
73	0xbd098d80	-0.03358221
74	0x3bf6a052	0.007526436
75	0x3d21b18f	0.039475974
76	0xbb4c3337	-0.0031158456
77	0x3d158c2b	0.036510628
78	0x3d5c5d8f	0.053800162
79	0x3c74d363	0.014942977
80	0xbd9fada4	-0.07796791
81	0xbd66b356	-0.05632337
82	0xbc14104c	-0.009037089
83	0x3d302aed	0.043009687
84	0x3d606395	0.05478247
85	0x3d5dc221	0.054140214
86	0x3d820eb3	0.0635046
87	0x392d97c2	0.000165551
88	0x3c160635	0.009156753
89	0x3da407be	0.08009289
90	0xbd95bc01	-0.073112495
91	0xbd9787a6	-0.0739892
92	0xbca32e29	-0.019919472
93	0xbd6e53d7	-0.058185425
94	0xbd338593	-0.04382856
95	0x3b129f14	0.002237265
96	0xbd97c2d0	-0.074102044
97	0xbd2ba00e	-0.041900687
98	0xbcfaf84d	-0.030635977
99	0x3d8952ff	0.067052834
100	0x3da60c92	0.08107866
101	0x3d763888	0.060112506
102	0xbda3b809	-0.07994086
103	0x3d68f3fb	0.056873303
104	0xbda8aadc	-0.08235714
105	0xbd312927	-0.043252137
106	0xbd95de2c	-0.073177665
107	0xbd3aa459	-0.04556689
108	0x3d217acb	0.039423745
109	0xbcfee015	-0.03111271
110	0xbcf43b13	-0.029813325
111	0x3dac5874	0.084153086
112	0x3c877765	0.016536424
113	0xbdac466c	-0.084118694
114	0xbcfe96d1	-0.031077774
115	0x3c84cf58	0.01621215
116	0xbd02f1d9	-0.031968925
117	0xbd5b4e35	-0.05354138
118	0xbb9d779f	-0.0048055197
119	0xbd9a1a29	-0.07524521
120	0xbcf7dfd4	-0.030258097
121	0xbd621214	-0.055193022
122	0x3da926ef	0.08259379
123	0x3da7d2ae	0.08194481
124	0x3d814ef1	0.06313885
125	0xb9806c2e	-0.00024494663
126	0x3ba47b84	0.005019607
127	0xb9cc07c2	-0.00038915692
128	0xbd1f6156	-0.038911186
129	0x3c95d832	0.018291567
130	0xbbae0af1	-0.005311363
131	0x3d9eca06	0.07753377
132	0x3c0181c6	0.007904476
133	0xbd383d47	-0.044980314
134	0x3d6ca903	0.05777837
135	0xbb7cd2d9	-0.0038577823
136	0xbcb57a58	-0.022153065
137	0x3d2350eb	0.03987209
138	0xbdabaa2c	-0.08382067
139	0xbdb242d7	-0.08704155
140	0x3c425b19	0.01186254
141	0x3d3f1d3e	0.046658747
142	0x3d9ff2c2	0.07809974
143	0xbd045d65	-0.03231563
144	0x3a4ddd31	0.00078530895
145	0xbd238ff8	-0.03993222
146	0x3d59a5b3	0.05313654
147	0xbb1a3d6b	-0.0023535143
148	0xbbf3336e	-0.0074219024
149	0xbd9e810b	-0.07739457
150	0xbd071c58	-0.032986015
151	0xbd4eac2a	-0.050457157
152	0xbcd90625	-0.026492188
153	0x3c373aa5	0.011183416
154	0xbb4b7dbb	-0.0031050283
155	0x3d8b2c3e	0.06795548
156	0xbca8de8a	-0.020613927
157	0xbd6c6fe6	-0.057723902
158	0x3d980b3e	0.07424019
159	0x3ccf31b5	0.025292257
160	0xbc80aff9	-0.01570891
161	0xbd5a3ef9	-0.05328271
162	0xbd3ff7ad	-0.04686706
163	0xbd10c853	-0.035347294
164	0xbced3275	-0.028954724
165	0x3cec0e83	0.028815513
166	0xbc8e460d	-0.017367387
167	0xbd8ac8f9	-0.06776614
168	0xbca99717	-0.020701928
169	0x3da62907	0.08113294
170	0xbc44c28c	-0.012009274
171	0xbbed143b	-0.0072350777
172	0x3c951428	0.018198088
173	0xbd049a19	-0.03237352
174	0xbd88268d	-0.06647978
175	0x3cc34fb8	0.023841724
176	0xbcaf545d	-0.021402532
177	0x3d424605	0.047430057
178	0xb99fbac8	-0.00030466006
179	0xbd05c371	-0.03265709
180	0x3d7c17d0	0.061546147
181	0xbc916ca0	-0.017751992
182	0x3b35aab4	0.0027720155
183	0x3cd671d4	0.026177324
184	0x3d2c8981	0.04212332
185	0xbcb9f1dd	-0.022698337
186	0x3da73a0d	0.08165369
187	0xbda95b9d	-0.08269427
188	0x3ca0e4bd	0.01964032
189	0x3d1b801f	0.037963983
190	0x3c828fa7	0.01593764
191	0x3c4ed031	0.012622879
192	0x3b9c33e0	0.004766926
193	0xbd69c1f6	-0.05706974
194	0x3c977967	0.018490506
195	0x3da2a2c2	0.079412
196	0x3cd895a7	0.026438547
197	0x3d91be98	0.07116431
198	0xbaf4f8cc	-0.001868987
199	0xbda75c9b	-0.0817196
200	0xbd10faa1	-0.03539527
201	0xbd7c6bc6	-0.06162622
202	0xbd0aea10	-0.033914626
203	0x3d9e39af	0.07725846
204	0xbb22924c	-0.0024806438
205	0xbd34ee3c	-0.04417251
206	0xbc81c169	-0.015839295
207	0xbd047a9e	-0.0323435
208	0x3d73a896	0.059486948
209	0x3dac989f	0.08427548
210	0x3d666c69	0.05625573
211	0x3bf09f3b	0.0073432005
212	0xbdb376ef	-0.08762919
213	0x3d754121	0.059876565
214	0x3d730184	0.059327617
215	0xbda1c8df	-0.07899641
216	0x3d1f6fd7	0.03892502
217	0x3c0b45f7	0.008500568
218	0x3d1a3238	0.03764555
219	0x3d77565b	0.06038509
220	0x3cd15942	0.025555257
221	0xbd6356b2	-0.0555026
222	0x3d6804e1	0.056645278
223	0x3d1ae695	0.037817556
224	0x3d002798	0.03128776
225	0xbcc3bcfc	-0.023893826
226	0x3b8c993c	0.004290728
227	0x3d8c8a58	0.068623245
228	0x3d67dd2e	0.056607418
229	0xbd6e1fba	-0.058135726
230	0x3c8562bc	0.016282432
231	0x3d8f9546	0.070108935
232	0xbdb34f5e	-0.087553725
233	0xbd20704e	-0.039169602
234	0x3ce0cc1e	0.02744108
235	0x3d0228a5	0.031777043
236	0x3c980c70	0.018560618
237	0xbda4f40b	-0.0805436
238	0xbd81cd46	-0.06337981
239	0xbcb89ad9	-0.022534775
240	0xbbbb2fa6	-0.0057124672
241	0xbc938f73	-0.018012738
242	0xbc641f2a	-0.013923446
243	0x3c5b21cb	0.013374756
244	0x3d9684bf	0.07349538
245	0xbd51daaa	-0.051233925
246	0xbc9b207c	-0.018936388
247	0xbd349e43	-0.044096243
248	0x3d703584	0.058644786
249	0x3cdba975	0.026814202
250	0xbd9afbe1	-0.07567573
251	0x3d8ac472	0.0677575
252	0x3d463b1d	0.04839622
253	0x3d91fc02	0.07128145
254	0x3d5dc2e0	0.054140925
255	0xbd5c1676	-0.053732358

lstm.bias_hh_l0 f4 [512]
0	0xbd588b97	-0.0528675
1	0xbd826499	-0.06366844
2	0x3d68f4f4	0.05687423
3	0xbd71881b	-0.05896769
4	0x3d53a7ad	0.05167358
5	0xbda6f52b	-0.08152231
6	0x3c85164c	0.016245984
7	0x3dad937c	0.08475396
8	0xbd96bdd5	-0.07360426
9	0x3cdaef5e	0.026725467
10	0x3db3c092	0.08776964
11	0x3ccb8ac2	0.024846438
12	0xbdb4782e	-0.08811985
13	0x3db60564	0.08887747
14	0x3ca38717	0.019961877
15	0xbda1840c	-0.07886514
16	0x3ca3ea6d	0.020009244
17	0x3db06634	0.08613244
18	0xbc0b8908	-0.0085165575
19	0xbd2d3d78	-0.04229495
20	0xbdb0256e	-0.08600889
21	0xbca52216	-0.020157855
22	0x3d0e8087	0.034790542
23	0x3d8d37a0	0.06895375
24	0x3cc8ce62	0.024512473
25	0x3cbdcfbd	0.023170346
26	0x3cc31377	0.023812992
27	0x3d0653b7	0.03279468
28	0xbcb04c54	-0.021520771
29	0xbd337610	-0.043813765
30	0x3dafe6e4	0.08588961
31	0xbd72837d	-0.05920743
32	0x3cc46f0f	0.023978738
33	0x3d8a52df	0.06754088
34	0x3d82afba	0.063811734
35	0xbc61d2bc	-0.013783153
36	0xbd4ac40f	-0.049503382
37	0xbd860110	-0.065431714
38	0x3d077cfe	0.033078186
39	0x3d5b57eb	0.053550642
40	0x3db7ff55	0.089842476
41	0xbdb83c4e	-0.08995877
42	0x3d752cb8	0.0598571
43	0xbd22d181	-0.03975058
44	0xbd8cb41c	-0.06870291
45	0xbd78e2a6	-0.060763024
46	0x3da5bb5f	0.08092379
47	0xbb88e869	-0.004178096
48	0x3cb0b83d	0.021572227
49	0xbd8f171b	-0.06986829
50	0x3d6cff80	0.05786085
51	0x3d22ad09	0.0397158
52	0x3d1616f8	0.036643
53	0xbc055ca9	-0.008139768
54	0xbc81cb98	-0.015844151
55	0xbc02a3d2	-0.007973628
56	0xbc5c84d0	-0.013459399
57	0x3c75ab36	0.014994433
58	0xbc66ed24	-0.014094625
59	0x3d048e04	0.032362
60	0x3ce70401	0.028200151
61	0xbb9485ef	-0.0045325677
62	0x3be75159	0.007059258
63	0xbda76400	-0.0817337
64	0x3d34939b	0.04408608
65	0xbc939fd0	-0.01802054
66	0xbd979141	-0.07400752
67	0xbd320d82	-0.043469913
68	0xbda6f987	-0.08153062
69	0xbd0fd1ae	-0.035112076
70	0x3c9f33f7	0.019433958
71	0x3b8d0600	0.004303694
72	0xbd73bac6	-0.059504293
73	0x3dae4af9	0.08510394
74	0x3d8bf60c	0.06834039
75	0x3d31dedc	0.043425426
76	0xbd372d91	-0.04472119
77	0x3d7a9c0c	0.061183974
78	0xbcbdc368	-0.023164466
79	0xbc8252b5	-0.015908578
80	0xbd472bbe	-0.0486257
81	0x3d41781c	0.047233686
82	0xbd7f2848	-0.062294275
83	0xbdabd07a	-0.08389373
84	0xbd989ac0	-0.07451391
85	0xbc19c04a	-0.009384224
86	0x3d629c87	0.055325057
87	0xbcd31e06	-0.025771152
88	0xbd18c80e	-0.037300162
89	0xbd3928bc	-0.045204863
90	0x3cbe1b6e	0.023206439
91	0xbdabe7c1	-0.08393813
92	0x3da7ca22	0.08192851
93	0x3d43908d	0.047745276
94	0x3d4520ee	0.048127107
95	0x3d645791	0.055747572
96	0xbd6c9df1	-0.057767812
97	0x3dadcde7	0.084865384
98	0x3c017dbb	0.007903512
99	0x3d7dc93e	0.061959498
100	0x3b9757bc	0.004618613
101	0x3d4ce3d1	0.05002195
102	0x3d0e8507	0.034794834
103	0xbda843af	-0.082160346
104	0x3d21888d	0.039436866
105	0xbd69e080	-0.057098866
106	0x3da463a7	0.0802682
107	0xbd28637f	-0.041110512
108	0x3d876721	0.06611467
109	0xbda4d40d	-0.08048258
110	0xbda944d3	-0.0826508
111	0x3ca5f329	0.02025755
112	0x3da99063	0.08279493
113	0xbbd7ca26	-0.0065853773
114	0x3c7284db	0.014802183
115	0x3c8a3a94	0.016873635
116	0x3d04584d	0.032310773
117	0x3d9bc018	0.07604998
118	0xbd74d092	-0.05976922
119	0xba80e895	-0.000983494
120	0x3cb86bcb	0.022512337
121	0xbdb1b583	-0.08677199
122	0x3cc40384	0.023927458
123	0xbca26f09	-0.019828336
124	0x3d5a8520	0.053349614
125	0x3d0f1e1e	0.03494083
126	0x3c74857b	0.014924402
127	0x3d05783f	0.03258538
128	0x3d93ddf0	0.072200656
129	0xbd5b13c3	-0.053485643
130	0x3c53658c	0.012902629
131	0x3bf8bcb0	0.0075908527
132	0xbdb61eab	-0.08892568
133	0x3d2ba55c	0.041905746
134	0x3c618b3f	0.013766109
135	0x3db226fb	0.08698841
136	0x3db2b5d3	0.087260865
137	0x3d605dfe	0.054777138
138	0xbd966f42	-0.073454395
139	0xbcef53ba	-0.029214729
140	0x3ccc3a0b	0.02493002
141	0xbcc236a5	-0.023707697
142	0x3da58619	0.08082218
143	0x3d93639b	0.071967326
144	0x3db4b974	0.08824435
145	0xbd644504	-0.05572988
146	0x3be7112e	0.0070516085
147	0xbda5cd4f	-0.080958
148	0x3d658a7e	0.05604028
149	0x3cef4ea7	0.029212309
150	0x3b58bd09	0.0033071658
151	0xbc37da94	-0.011221547
152	0xbba2a0f3	-0.0049630343
153	0x3c8cfea6	0.01721127
154	0xbced07a7	-0.028934313
155	0x3d0bd1e1	0.034135703
156	0xbd903bb7	-0.0704264
157	0x3cedcf25	0.029029438
158	0x3d4c6d5d	0.049908984
159	0xbce202e1	-0.027589263
160	0xbd677aa0	-0.05651343
161	0xbcc7fc40	-0.024412274
162	0xbd8db55f	-0.069193594
163	0x3ca68d88	0.02033116
164	0xbbaf7166	-0.0053540943
165	0x3c8656d7	0.01639883
166	0x3da37e2b	0.07983049
167	0x3da90c3a	0.08254285
168	0xbcc0ad1d	-0.023520047
169	0x3cf89f7c	0.030349486
170	0x3d8b8f02	0.06814386
171	0xbcb71ee3	-0.022353595
172	0x3d053369	0.03251973
173	0x3d69a1e2	0.05703915
174	0x3d4caa65	0.04996719
175	0xbdb3cf5e	-0.087797865
176	0xbd8f0fc5	-0.0698543
177	0x3c03f2c9	0.00805349
178	0x3d7eab35	0.062174994
179	0xbcfab39a	-0.030603219
180	0xbd002978	-0.031289548
181	0xbc656412	-0.014000909
182	0xbda0fda5	-0.07860879
183	0xbda026e5	-0.078199185
184	0x3ca073c6	0.019586455
185	0xbda4211d	-0.08014128
186	0x3ba73553	0.0051027923
187	0x3c16d8eb	0.009206991
188	0xbccc04fc	-0.02490472
189	0xbc8cbdac	-0.017180286
190	0xbc3db53c	-0.011578854
191	0xbd5dc331	-0.054141227
192	0xbda51726	-0.08061056
193	0x3d17c760	0.037055373
194	0xbc57e36b	-0.013176779
195	0xbc8ca5b4	-0.017168857
196	0x3d89bd66	0.06725578
197	0xbc531c96	-0.012885233
198	0x3db466ca	0.08808668
199	0xbd9c0c56	-0.076195404
200	0x3cea71b5	0.028618673
201	0x3bef2e3c	0.0072992127
202	0xbca54f12	-0.020179305
203	0x3db41094	0.087922245
204	0xbd6215ef	-0.0551967
205	0x3cc1d51a	0.023661185
206	0x3d00a98c	0.031411693
207	0xbdb23e01	-0.087032326
208	0xbdb2d520	-0.087320566
209	0xbd3e4d04	-0.046460167
210	0xbd3f62a3	-0.046724927
211	0x3d869b7a	0.065726236
212	0x3dadfc99	0.08495445
213	0xbc90f66c	-0.017695628
214	0xbd084424	-0.03326811
215	0xbd31ad46	-0.043378137
216	0x3d2803d6	0.041019283
217	0x3a8bfb39	0.0010679729
218	0x3dab93c9	0.08377797
219	0xbd6a2567	-0.057164576
220	0xbd6414d6	-0.055683933
221	0xbd755001	-0.05989075
222	0xb9a657dd	-0.0003172745
223	0xbcfbe30c	-0.030747913
224	0xbc70723a	-0.014675671
225	0x3c2ac73c	0.010423478
226	0xbda80f2c	-0.08206019
227	0xbcf0b10d	-0.0293813
228	0xbd708666	-0.058721922
229	0xbceb7360	-0.028741539
230	0x3d98e141	0.07464839
231	0x3d59b607	0.05315211
232	0xbd34be06	-0.044126533
233	0xbd4ae51a	-0.049534895
234	0x3da33bd4	0.07970396
235	0xbd83975c	-0.06425354
236	0x3d871e89	0.06597621
237	0x3c7526f9	0.014962905
238	0xbd370f92	-0.044692583
239	0xbd3a0d98	-0.04542312
240	0x3c8433c2	0.016137961
241	0x3d60ae3d	0.054853667
242	0xbd8a2f80	-0.06747341
243	0xb8452340	-4.700129e-05
244	0xbd68ec7d	-0.056866158
245	0xbd9817e1	-0.074264295
246	0xbda030d3	-0.078218125
247	0xbc0c1955	-0.0085509615
248	0xbb4d85f2	-0.0031360355
249	0xbd0f36a2	-0.03496421
250	0x3d72383d	0.059135664
251	0xbda0ceb7	-0.07851928
252	0xbc04849f	-0.00808826
253	0x3b4ce651	0.003126521
254	0xbcff38b5	-0.03115497
255	0xbda26c40	-0.07930803
